DigitsRecognizer/app/src/main/assets/mnist.tflite (tflite, 116208 bytes, 6 tensors)

dense_2/bias f4 [10]
000000 00 ea f4 3a 9d 06 49 3e 06 a7 00 3c 85 11 63 bd
       0.001868546 0.19631429 0.0078523215 -0.05543663
000010 2a e5 eb bd 72 d8 d7 bc 97 1e 25 3c bf 98 48 bc
       -0.11518319 -0.026348326 0.010078094 -0.012243449
000020 a8 ff 37 bc 7a 29 d7 3c
       -0.011230387 0.026264895

conv2d_5/bias f4 [64]
000000 51 10 13 3c 7d 39 1d bc 54 e7 43 bc 1c d5 37 bd
       0.008976058 -0.009596226 -0.011957008 -0.04488097
000010 fe f8 2d bd 96 2e fc bc b0 81 2f 3c a6 84 9e 3c
       -0.042473786 -0.030783933 0.010712072 0.019350361
000020 59 c4 c7 bb c1 8c ac bc 96 d2 13 bc 0f 90 b0 3c
       -0.0060964045 -0.02106321 -0.009022376 0.021553067
000030 9c 49 0e bc f4 97 57 bc 61 70 8e 3d cd cd d2 bc
       -0.008684542 -0.013158787 0.06955028 -0.0257329
000040 ab f4 fd bc 20 de 32 3c d0 dc 1a 3d a8 93 1f bd
       -0.031000456 0.010917217 0.03780824 -0.038959175
000050 5a 16 ce b9 54 e6 89 3c eb fd 68 ba 14 b6 7b bc
       -0.00039308035 0.016833462 -0.00088879344 -0.015363235
000060 86 86 37 bd c3 09 0d bd e0 1f 6e bd 40 1d 59 bc
       -0.044806026 -0.034433138 -0.058135867 -0.013251603
000070 0d 81 5c 3d 98 f0 6d bc bc 50 00 3d e2 81 c9 3c
       0.05383401 -0.014522694 0.031326994 0.024598066
000080 bd 7b a7 bc 8a 09 1d bc fe 7a e1 3b 29 39 6e 3d
       -0.020444745 -0.009584794 0.006881117 0.05815998
000090 0f c1 95 bb 6d 07 19 3d 2f 1d 55 3d 62 0a e8 3b
       -0.0045701335 0.037360597 0.052029785 0.007081316
0000a0 1d 86 7e bc e1 0e 00 bc da f9 89 bd 8d 67 21 bd
       -0.015534905 -0.007816047 -0.067371085 -0.039405394
0000b0 2d bf ed bc 9f f5 53 bc 22 94 28 3d fe 3f 5d bc
       -0.029021824 -0.012936979 0.041156895 -0.013504026
0000c0 61 f5 a0 bb 19 5b 6e bc d2 d3 70 bd 1d 5c b1 bc
       -0.004912064 -0.014548087 -0.058795758 -0.021650368
0000d0 33 ce 58 bc 94 69 d8 bc 84 a1 6e bd 2a e6 68 3d
       -0.0132327555 -0.026417531 -0.058259502 0.056860127
0000e0 03 65 b1 bc eb 1d c1 bb 80 6a 78 bd a2 0f 50 39
       -0.021654611 -0.005893459 -0.06064844 0.0001984225
0000f0 eb 9f aa 3c 87 9d b4 3d 51 dd 94 bc 6b cf a0 bc
       0.020828208 0.088191085 -0.018171938 -0.019630155

conv2d_4/bias f4 [32]
000000 63 dd 8d bb 14 f3 38 bc 78 b7 03 bc cb b6 b0 bc
       -0.00432937 -0.011288423 -0.008039348 -0.021571537
000010 14 e2 20 bc 94 bc 38 3c b7 e4 f3 bb 62 29 bf b8
       -0.009819526 0.011275429 -0.0074430364 -9.115298e-05
000020 4c 3e 15 bc ca 90 01 bd ef fe a8 bb 53 00 a7 bb
       -0.009109091 -0.031632222 -0.0051573436 -0.005096474
000030 74 af 78 3c ca f9 8d 3d 19 65 3c bc 64 4d 0e bc
       0.01517855 0.06932409 -0.011498713 -0.008685444
000040 73 a9 2e bc 46 3b 2d bb 31 68 ae bc c9 c2 ad 3d
       -0.010660517 -0.0026433035 -0.021289917 0.08484418
000050 84 58 a9 3b e0 e1 bf 37 45 91 37 bd 90 a7 b0 bb
       0.0051680226 2.2874156e-05 -0.044816274 -0.0053910688
000060 54 28 3c bb c5 80 16 bc 5e 93 5b 3d 01 79 d0 3c
       -0.002871056 -0.0091859745 0.053607337 0.025448324
000070 27 1a cd bb a6 c3 8b 3d ad d1 87 3d f3 32 69 bc
       -0.006259221 0.06824426 0.06631789 -0.014233339

sequential_2/dense_2/MatMul i1 [10, 9216] scale=0.0048076273 zero_point=0
000000 ec fc 0b f6 0a fd 02 f2 f5 fa f8 d6 f5 fe e5 f8
       -0.096152544 -0.01923051 0.0528839 -0.048076272 0.048076272 -0.014422882 0.009615255 -0.06730678 -0.0528839 -0.028845765 -0.03846102 -0.20192035 -0.0528839 -0.009615255 -0.12980594 -0.03846102
000010 fd f8 f1 f4 e6 f2 ef 06 01 f8 03 0c d5 e8 f8 f4
       -0.014422882 -0.03846102 -0.07211441 -0.05769153 -0.12499831 -0.06730678 -0.081729665 0.028845765 0.0048076273 -0.03846102 0.014422882 0.05769153 -0.20672797 -0.11538306 -0.03846102 -0.05769153
000020 f6 00 fd eb f0 fb 02 e8 e0 fd ee 00 e5 fd f9 f4
       -0.048076272 0.0 -0.014422882 -0.10096017 -0.07692204 -0.024038136 0.009615255 -0.11538306 -0.15384407 -0.014422882 -0.086537294 0.0 -0.12980594 -0.014422882 -0.03365339 -0.05769153
000030 f9 03 fc f7 e1 f5 e9 e9 f9 ec fe f2 f2 09 e6 02
       -0.03365339 0.014422882 -0.01923051 -0.043268647 -0.14903645 -0.0528839 -0.11057543 -0.11057543 -0.03365339 -0.096152544 -0.009615255 -0.06730678 -0.06730678 0.043268647 -0.12499831 0.009615255
000040 f8 fd fb fc e5 f9 00 f5 dd 06 f3 ed f2 f6 eb f7
       -0.03846102 -0.014422882 -0.024038136 -0.01923051 -0.12980594 -0.03365339 0.0 -0.0528839 -0.16826695 0.028845765 -0.062499154 -0.091344915 -0.06730678 -0.048076272 -0.10096017 -0.043268647
000050 fb f6 f0 ea e3 ff f2 f6 fa f1 f9 02 fe eb fc f4
       -0.024038136 -0.048076272 -0.07692204 -0.1057678 -0.1394212 -0.0048076273 -0.06730678 -0.048076272 -0.028845765 -0.07211441 -0.03365339 0.009615255 -0.009615255 -0.10096017 -0.01923051 -0.05769153
000060 f6 fd fe ea ee f2 01 d6 cc 04 ef fc f2 fd 04 f5
       -0.048076272 -0.014422882 -0.009615255 -0.1057678 -0.086537294 -0.06730678 0.0048076273 -0.20192035 -0.24999662 0.01923051 -0.081729665 -0.01923051 -0.06730678 -0.014422882 0.01923051 -0.0528839
000070 f8 04 f6 f5 ef f7 fc ff ed e3 e7 02 ec 07 ea fa
       -0.03846102 0.01923051 -0.048076272 -0.0528839 -0.081729665 -0.043268647 -0.01923051 -0.0048076273 -0.091344915 -0.1394212 -0.12019068 0.009615255 -0.096152544 0.03365339 -0.1057678 -0.028845765
000080 01 f2 06 fb f9 ff e8 02 e0 fb fc f6 f9 f8 ef ff
       0.0048076273 -0.06730678 0.028845765 -0.024038136 -0.03365339 -0.0048076273 -0.11538306 0.009615255 -0.15384407 -0.024038136 -0.01923051 -0.048076272 -0.03365339 -0.03846102 -0.081729665 -0.0048076273
000090 01 03 f8 05 d7 fb f3 f6 04 fa 11 fc e3 e4 f8 f2
       0.0048076273 0.014422882 -0.03846102 0.024038136 -0.19711272 -0.024038136 -0.062499154 -0.048076272 0.01923051 -0.028845765 0.081729665 -0.01923051 -0.1394212 -0.13461356 -0.03846102 -0.06730678
0000a0 ef fd 02 ec f2 f3 fc d7 d6 00 dd 01 e5 f8 0f fe
       -0.081729665 -0.014422882 0.009615255 -0.096152544 -0.06730678 -0.062499154 -0.01923051 -0.19711272 -0.20192035 0.0 -0.16826695 0.0048076273 -0.12980594 -0.03846102 0.07211441 -0.009615255
0000b0 fe fc fb f0 f8 02 0b 0a ff e0 f4 ed f9 1e ed fa
       -0.009615255 -0.01923051 -0.024038136 -0.07692204 -0.03846102 0.009615255 0.0528839 0.048076272 -0.0048076273 -0.15384407 -0.05769153 -0.091344915 -0.03365339 0.14422882 -0.091344915 -0.028845765
0000c0 ff fb fe fa 08 f5 fa f8 e9 04 00 f2 f7 15 f7 f8
       -0.0048076273 -0.024038136 -0.009615255 -0.028845765 0.03846102 -0.0528839 -0.028845765 -0.03846102 -0.11057543 0.01923051 0.0 -0.06730678 -0.043268647 0.10096017 -0.043268647 -0.03846102
0000d0 01 02 f2 06 ec f7 f6 ff fd 10 fa 16 f6 ed f3 06
       0.0048076273 0.009615255 -0.06730678 0.028845765 -0.096152544 -0.043268647 -0.048076272 -0.0048076273 -0.014422882 0.07692204 -0.028845765 0.1057678 -0.048076272 -0.091344915 -0.062499154 0.028845765
0000e0 e1 f8 fc f0 e6 01 09 e8 e1 fc 08 fc 01 02 04 fa
       -0.14903645 -0.03846102 -0.01923051 -0.07692204 -0.12499831 0.0048076273 0.043268647 -0.11538306 -0.14903645 -0.01923051 0.03846102 -0.01923051 0.0048076273 0.009615255 0.01923051 -0.028845765
0000f0 09 ff fa f2 e9 ff f5 11 fd da e9 fd f3 0b f5 00
       0.043268647 -0.0048076273 -0.028845765 -0.06730678 -0.11057543 -0.0048076273 -0.0528839 0.081729665 -0.014422882 -0.18268983 -0.11057543 -0.014422882 -0.062499154 0.0528839 -0.0528839 0.0

sequential_2/conv2d_4/Conv2D f4 [32, 3, 3, 1]
000000 04 a8 9c 3e 1f ad 1c bc 7f f4 9b be f7 97 f3 3d
       0.30596936 -0.00956276 -0.30459973 0.11894219
000010 89 94 59 3d 00 e0 9c be 95 50 17 3e 03 a2 30 3e
       0.05312017 -0.30639648 0.14776833 0.17249303
000020 6c e8 cb bd 9b 79 3f 3d 09 20 10 be 95 87 30 3d
       -0.0995644 0.04674683 -0.1407472 0.04309805
000030 c9 70 1f 3e 42 f3 15 be a9 8f 11 3e 49 4b 3a 3d
       0.15570368 -0.14643577 0.14214958 0.045481954
000040 e5 c9 8e be c0 eb 12 3e 23 dc 06 be d2 00 5c be
       -0.27888408 0.14347744 -0.13169913 -0.21484688
000050 90 d4 5b bc 29 37 10 be 1e 55 4c 3e 42 cc ae 3e
       -0.013417378 -0.14083542 0.19954345 0.3414021
000060 51 75 e4 bd 4f 9e d3 bd 67 16 3e 3e d7 b8 14 3e
       -0.11155189 -0.10332929 0.18563233 0.14523636
000070 32 63 9b bd b5 13 77 3d ba 88 42 be a3 76 cf 3b
       -0.075872794 0.06032153 -0.1899747 0.0063312813
000080 56 c3 18 3e 87 c0 6e be 3b 05 a3 3c 78 b6 5d 3e
       0.14918265 -0.23315631 0.019899955 0.21651638
000090 50 bf d7 bc a1 17 4a be 10 99 67 be 68 b2 83 3e
       -0.026336342 -0.19735576 -0.22616982 0.2572205
0000a0 c7 d3 3f be 04 a8 da bd c1 c1 a0 3e 25 4b c7 3d
       -0.1873313 -0.10676578 0.31397822 0.097311296
0000b0 cc b8 be 3d 52 76 aa be a4 7c c3 be c4 1a 25 be
       0.09312591 -0.33293396 -0.3818103 -0.16123492
0000c0 78 16 5b 3b 12 a5 11 3e 03 7d 2d 3d 43 90 73 3e
       0.003343014 0.14223126 0.04235555 0.237855
0000d0 5e e2 80 3e 7f d9 6d 3d 71 5e 17 3e 9a a1 8b 3c
       0.25172704 0.05806875 0.1478212 0.017044831
0000e0 10 31 a7 be ae 81 66 3e d7 61 b0 3d 21 0f c3 be
       -0.3265462 0.22510406 0.086124115 -0.3809748
0000f0 9b fc 38 3e e9 87 6d 3e 2a 60 aa bd f6 0b 5f 3e
       0.18065111 0.23196377 -0.08319123 0.21781906
000100 04 d0 64 3e 0f cc 9b 3e 0f df dd bd 1b 33 97 bd
       0.22344977 0.30429122 -0.10833561 -0.073827945
000110 d2 30 e0 3b 3c d5 44 bd ed 8d d3 bd 3c f7 a1 be
       0.0068417573 -0.04805492 -0.103298046 -0.31633937
000120 4d 2c 4e 3c 79 68 99 3c fe 8a 0a be 14 ab 7b bd
       0.012583804 0.018726574 -0.13529584 -0.06144245
000130 76 97 1e be 5e ca 19 3d 02 27 53 3e 8f c3 0c 3e
       -0.15487465 0.037546508 0.20620349 0.13746475
000140 15 36 87 3e cd 93 b9 be 5f 97 43 bd f6 bf bc 3d
       0.2640845 -0.36245576 -0.04775178 0.09216301
000150 3d 06 8d bc 2a de 38 3d b6 90 69 3e 83 d2 8b 3d
       -0.017214889 0.045133747 0.22809109 0.06827261
000160 b9 53 32 be 7e f9 e5 3d 36 96 6b 3e 14 4f bb 3d
       -0.1741475 0.112292275 0.2300652 0.09145942
000170 1d 6d 73 bc 80 e0 34 bc 41 49 81 3d ab 5f 6a be
       -0.014857558 -0.011039853 0.063128 -0.22888057
000180 b2 f0 2b be 07 63 e2 bd 4e 57 78 3d e8 7d bb be
       -0.16791037 -0.11054044 0.060630135 -0.36619496
000190 75 64 5f be 71 68 a9 be 87 f0 b0 3d 90 98 df 3c
       -0.21815665 -0.33087495 0.08639627 0.027294427
0001a0 0c 0a 38 be b5 16 bf 3e cb a3 9c 3d 5f 33 dc 3d
       -0.17972583 0.37322012 0.076484285 0.10751986
0001b0 c3 ba f7 3b 98 6e 59 3e ff e6 65 3e ad 90 2b 3e
       0.0075601055 0.21233594 0.224514 0.16754408
0001c0 cb 4a 51 3d 95 03 04 be 63 0f 7d 3c 60 eb 2a be
       0.05109672 -0.12891991 0.015445563 -0.16691351
0001d0 c5 f0 cc be ea 88 36 be b9 de 06 3e 8f e8 a0 3e
       -0.40027443 -0.17825666 0.131709 0.31427428
0001e0 09 41 a4 be f0 24 da 3c 7a df 69 3e 5b 66 75 be
       -0.32080868 0.026628941 0.22839156 -0.23964827
0001f0 70 1b 06 bf 0d 7e 8c be 06 52 a0 3c 76 d3 1a 3e
       -0.52385616 -0.2743992 0.019570362 0.15119728
000200 ab 28 a9 3e 1a 55 40 be a1 94 cc bd fc fd 94 3b
       0.3303884 -0.18782464 -0.09989286 0.004546879
000210 76 1b 68 be 5f d2 ae bd 91 1c e6 3d dd 46 8a bd
       -0.22666726 -0.08536219 0.11235917 -0.06751797
000220 e0 72 6c 3e 1f 88 9d 3e dc 82 ee 3c bd d1 ce 3c
       0.23090696 0.30767915 0.029115133 0.025246495
000230 b2 25 06 3d 86 58 a8 be d5 49 ed bd 63 0f 8f bd
       0.032750793 -0.32880038 -0.11586348 -0.06985357
000240 5c d3 22 3e a8 5d 6d be 54 d6 38 3e 80 81 d5 3d
       0.1590094 -0.23180258 0.1805051 0.10425091
000250 84 c1 9f be 5f f6 58 3e 92 cf 03 bc 4a 9d 9b bd
       -0.31202328 0.21187733 -0.008045094 -0.0759836
000260 e6 01 9e 3d bb 02 8f 3e e5 3d 22 bc 22 1b a6 be
       0.07715206 0.2793177 -0.009902452 -0.32442576
000270 09 6b 83 3e 99 a4 ca bd 97 69 86 be c7 31 65 3e
       0.256676 -0.09894676 -0.26252434 0.2238227
000280 6d 53 bf 3d 1b 48 cb bd 9b 71 73 be 48 17 54 be
       0.09342084 -0.099258624 -0.23773806 -0.20712006
000290 53 ad 0e 3e e8 42 c5 3d 33 48 01 3e 77 d6 90 3e
       0.13933305 0.09631902 0.12625198 0.28288624
0002a0 2c ee db bd 44 fe 5e 3b 63 a9 a6 bd 14 1d 88 3e
       -0.10738787 0.0034026066 -0.08137777 0.26584685
0002b0 ab ed 5a 3e 0f 10 63 3e 6b 53 3b 3e de 9d 9a 3c
       0.21379726 0.22174095 0.1829354 0.018874105
0002c0 3d 26 7d be 90 c8 50 be d7 eb 9d be 2c e6 06 bf
       -0.24721618 -0.20389009 -0.30843994 -0.52694964
0002d0 04 dc 0d be 81 55 06 3d af 1e 86 3e ec 9d b0 be
       -0.1385346 0.032796387 0.26195285 -0.34495485
0002e0 94 86 8f bd 16 dc 19 3e f3 9d 7d be d9 ba 21 be
       -0.070080906 0.15025362 -0.24767284 -0.15793933
0002f0 1c b4 95 3e f9 71 75 be 07 76 20 3c b7 74 2e be
       0.29238975 -0.23969258 0.009793765 -0.1703671
000300 cb d1 4e bd 82 8c b2 3d 73 60 29 3e a2 a0 da bd
       -0.050493043 0.08718206 0.16540699 -0.106751695
000310 9b 11 0e 3e 87 93 68 3d f0 cb e8 3d 53 3c c1 3b
       0.13873903 0.056781318 0.11367023 0.005897084
000320 d9 b0 34 bc 34 4b 07 3e d0 14 9e bd e0 a0 02 3b
       -0.011028492 0.13212281 -0.077188134 0.0019932315
000330 c8 db 2b 3e ed dd fd bd 49 ed 24 3d d0 69 a1 bc
       0.16783059 -0.123958446 0.040265355 -0.019703776
000340 ee 78 78 be 3b 84 a7 be 5c d7 5d 3e c7 83 d8 3d
       -0.24264881 -0.3271807 0.21664184 0.105720095
000350 89 7c 38 be 22 d9 0a 3d b4 7b 0a 3e 66 2c 97 3e
       -0.18016256 0.03389848 0.13523751 0.2952606
000360 57 02 a6 bc 25 0d a0 3e b1 a4 82 bc 91 23 89 bd
       -0.020264788 0.31260028 -0.015947672 -0.06696237
000370 f2 e8 34 3d 1e 04 29 be 3b e2 6e be e1 97 96 be
       0.044167466 -0.16505477 -0.23328488 -0.2941275
000380 cd 16 d0 be cc 81 6a 3d 5b 86 69 3e 83 48 2b 3e
       -0.40642396 0.05725269 0.22805159 0.1672688
000390 84 96 83 bd df 90 fb 3d 8a 5c 92 3e 78 f1 bc be
       -0.06425193 0.12283491 0.28586227 -0.36902976
0003a0 23 48 96 be 06 20 89 bc 60 e8 87 be 24 f4 a7 be
       -0.2935191 -0.016738903 -0.26544476 -0.32803452
0003b0 e2 fb f9 be cb 8d 24 3e 82 70 3e 3d 14 a5 2f be
       -0.48824984 0.16069715 0.046494015 -0.17152816
0003c0 69 ba 9c 3e 68 bc 1c 3e a3 e8 b1 3c 9c 7b 70 3e
       0.3061097 0.15306246 0.021717375 0.23484653
0003d0 10 85 b6 3c 9c 21 17 bd 88 fe 36 3e 2f 59 1c be
       0.022280246 -0.036897287 0.17870533 -0.15268396
0003e0 da f4 da 3c 04 47 32 be 87 a3 6b bc 9b 1f ed bd
       0.026728082 -0.17409903 -0.01438225 -0.11578294
0003f0 aa 39 90 3e 92 3c c7 3d 65 99 8f 3e e3 92 34 3e
       0.28168994 0.0972835 0.28046718 0.17634158

sequential_2/conv2d_5/Conv2D i1 [64, 3, 3, 32]
000000 0a e1 c3 e7 19 0d 28 f4 0a c4 f9 24 1f c8 d1 de
       10 -31 -61 -25 25 13 40 -12 10 -60 -7 36 31 -56 -47 -34
000010 ec 24 fe ff 81 22 14 17 f2 be 21 f8 04 07 8d 1d
       -20 36 -2 -1 -127 34 20 23 -14 -66 33 -8 4 7 -115 29
000020 ef 09 e1 00 00 03 f4 1f 16 d3 00 06 fe 0f 08 e4
       -17 9 -31 0 0 3 -12 31 22 -45 0 6 -2 15 8 -28
000030 1e fb e5 f3 d4 f5 0b e8 c8 ef 05 fb 14 fd 9e ff
       30 -5 -27 -13 -44 -11 11 -24 -56 -17 5 -5 20 -3 -98 -1
000040 df 01 07 23 ce dd d2 31 0e 1a fe e6 f0 10 4a 2d
       -33 1 7 35 -50 -35 -46 49 14 26 -2 -26 -16 16 74 45
000050 1e eb 06 eb 39 d4 ee b7 f3 25 d2 01 ff 07 f8 f9
       30 -21 6 -21 57 -44 -18 -73 -13 37 -46 1 -1 7 -8 -7
000060 25 f5 03 15 09 f1 fe c0 f5 db 18 e1 c9 ee ee f1
       37 -11 3 21 9 -15 -2 -64 -11 -37 24 -31 -55 -18 -18 -15
000070 e1 0d ff c3 b6 19 00 19 0d 2b f8 18 0d e7 9e 03
       -31 13 -1 -61 -74 25 0 25 13 43 -8 24 13 -25 -98 3
000080 fa 01 e5 e3 1c ff 23 c9 06 e1 ea f2 ba 1b ad ac
       -6 1 -27 -29 28 -1 35 -55 6 -31 -22 -14 -70 27 -83 -84
000090 f6 1a dc 95 a5 0d ed 20 de 98 05 f1 e5 e7 8d ff
       -10 26 -36 -107 -91 13 -19 32 -34 -104 5 -15 -27 -25 -115 -1
0000a0 df ed fe fb 0e fd 0b f8 f9 11 fe f0 f1 fb 04 fc
       -33 -19 -2 -5 14 -3 11 -8 -7 17 -2 -16 -15 -5 4 -4
0000b0 f3 f2 11 95 22 e8 f0 e2 18 ee fb d4 09 db f3 ed
       -13 -14 17 -107 34 -24 -16 -30 24 -18 -5 -44 9 -37 -13 -19
0000c0 fd 01 1b 04 f6 d2 ef 25 e2 02 20 04 b1 5b 46 2b
       -3 1 27 4 -10 -46 -17 37 -30 2 32 4 -79 91 70 43
0000d0 05 fd 07 cd 34 fa 03 df 08 6d ef 17 e2 dc c2 f5
       5 -3 7 -51 52 -6 3 -33 8 109 -17 23 -30 -36 -62 -11
0000e0 12 02 f2 0d 10 f8 01 f7 f5 ea 15 f0 cb cb cd e4
       18 2 -14 13 16 -8 1 -9 -11 -22 21 -16 -53 -53 -51 -28
0000f0 15 f6 f8 9b ca 1a 16 2d e4 f8 f2 1e ee b5 cb 1e
       21 -10 -8 -101 -54 26 22 45 -28 -8 -14 30 -18 -75 -53 30
