DigitsRecognizer/app/src/main/assets/mnist2.tflite (tflite, 116208 bytes, 6 tensors)

dense_3/bias f4 [10]
0	0xbd0fce4f	-0.03510886
1	0x3e23ef5a	0.16009274
2	0xbcecfa6c	-0.028928004
3	0xbbe85428	-0.0070901103
4	0x3c928c9e	0.017889317
5	0xbcb3627b	-0.021897545
6	0xbb13ca1d	-0.0022550889
7	0x3d46ab04	0.048502937
8	0xbd9bf34a	-0.07614763
9	0xbc96d98c	-0.018414281

conv2d_7/bias f4 [64]
0	0x3cef8dff	0.029242514
1	0x3cb67cb5	0.022276262
2	0xbd35df3d	-0.04440235
3	0x3d2f73d3	0.042835068
4	0xbcfcca3a	-0.030858148
5	0x3d5e81b4	0.054322913
6	0x3d6e594b	0.058190625
7	0xbcf8ee3f	-0.030387042
8	0xbc0461db	-0.008079971
9	0x3c670846	0.014101094
10	0xbc3e105e	-0.011600582
11	0x3d39400a	0.045227088
12	0x3d7cb754	0.061698273
13	0xbd8f8ff0	-0.07009876
14	0xbd13240f	-0.03592306
15	0x3cde3e93	0.027129447
16	0x3d1392eb	0.036028784
17	0x3d1fb394	0.03898962
18	0xbb08528e	-0.002080116
19	0x3bc5b2d3	0.0060332804
20	0x3cb060f6	0.02153061
21	0x3c27e9b6	0.010248592
22	0x3d289526	0.041157864
23	0xbc34a295	-0.011025091
24	0xbcfdd05c	-0.030983143
25	0xbc129e6d	-0.008948904
26	0xbd479557	-0.048726406
27	0xbb8ada97	-0.0042374837
28	0xbb26f04e	-0.0025472823
29	0x3d06e032	0.032928653
30	0xbdb5375b	-0.08848449
31	0x3c0380e8	0.008026339
32	0x3d2e9525	0.042622704
33	0xbd8af858	-0.06785649
34	0x3c0a6f86	0.008449441
35	0xbd151422	-0.036396153
36	0x3cc69eaf	0.024245588
37	0x395129f3	0.0001994742
38	0xbd0215d4	-0.0317591
39	0xbc820af4	-0.015874363
40	0xbbcaf51c	-0.00619377
41	0xbcfb13a6	-0.030649018
42	0x3bb513c6	0.005526039
43	0xbd32afac	-0.043624565
44	0x3bd10f7e	0.0063800206
45	0x3ce45507	0.027872575
46	0x3cce2e05	0.025168428
47	0xbab07289	-0.0013461869
48	0xbc0acd3a	-0.008471781
49	0xbc454053	-0.012039262
50	0xbcabc53e	-0.020968076
51	0x3cf3f695	0.029780665
52	0xbc4fe2b2	-0.012688326
53	0xbcfa558f	-0.030558376
54	0x3d0e6b6f	0.034770425
55	0x3a4d2f6e	0.0007827197
56	0xbd961f5c	-0.073302
57	0x3cd929dc	0.026509218
58	0xbb81aa1d	-0.0039570467
59	0x3d8262d7	0.063665085
60	0x3c88aca0	0.016683877
61	0x3d37ce25	0.04487433
62	0x3d870127	0.06592017
63	0xbccf69f6	-0.02531908

conv2d_6/bias f4 [32]
0	0x3dba8084	0.09106544
1	0x3d1ee45e	0.038792007
2	0xbc74f25f	-0.014950364
3	0xbbd16a4d	-0.006390846
4	0x3c808cf1	0.015692206
5	0xbc02666f	-0.007958992
6	0x3d7e3a28	0.06206718
7	0xbbcec9b0	-0.006310664
8	0xbc188db5	-0.009311129
9	0x3cd2e10c	0.025742076
10	0x3da6f73b	0.08152624
11	0xbbc44219	-0.0059893248
12	0x3ca035c7	0.019556893
13	0xbca2b19c	-0.019860081
14	0x3cf93e1c	0.030425124
15	0xbb4b1812	-0.0030989689
16	0xbbb3386e	-0.0054693734
17	0x3d2390a9	0.03993288
18	0xbca8560d	-0.020548845
19	0xbc278573	-0.010224688
20	0x3d43c0c6	0.047791265
21	0xbbcf786c	-0.006331494
22	0x3d043346	0.03227546
23	0x3a631480	0.00086624175
24	0x3cadedfd	0.021231646
25	0xbb8c933f	-0.004290014
26	0xbb9ba054	-0.004749337
27	0xbba2b55e	-0.0049654683
28	0xbc268501	-0.010163547
29	0xbccf4a43	-0.025303965
30	0xbbc6af98	-0.006063413
31	0x3d01ceb2	0.03169126

sequential_3/dense_3/MatMul i1 [10, 9216] scale=0.0055181505 zero_point=0
0	0xee	-0.09932671
1	0x14	0.11036301
2	0xe8	-0.13243562
3	0xff	-0.0055181505
4	0x1e	0.16554451
5	0x03	0.016554452
6	0xf3	-0.071735956
7	0xee	-0.09932671
8	0xea	-0.12139931
9	0xf5	-0.060699657
10	0xe5	-0.14899006
11	0xf2	-0.07725411
12	0xf9	-0.038627055
13	0xfa	-0.033108905
14	0xf2	-0.07725411
15	0x01	0.0055181505
16	0x08	0.044145204
17	0xf3	-0.071735956
18	0xd0	-0.26487124
19	0xe6	-0.14347191
20	0xf4	-0.06621781
21	0xff	-0.0055181505
22	0xf8	-0.044145204
23	0xf3	-0.071735956
24	0xea	-0.12139931
25	0xf1	-0.082772255
26	0x05	0.027590752
27	0xe8	-0.13243562
28	0xf2	-0.07725411
29	0x0f	0.082772255
30	0xf9	-0.038627055
31	0xe7	-0.13795376
32	0xed	-0.10484486
33	0xe6	-0.14347191
34	0xf2	-0.07725411
35	0xf7	-0.049663354
36	0xe7	-0.13795376
37	0x05	0.027590752
38	0xea	-0.12139931
39	0xfe	-0.011036301
40	0xd3	-0.24831678
41	0xef	-0.09380856
42	0x03	0.016554452
43	0xfd	-0.016554452
44	0xfd	-0.016554452
45	0x06	0.033108905
46	0xfc	-0.022072602
47	0xe3	-0.16002637
48	0xdf	-0.18209897
49	0xf2	-0.07725411
50	0xfc	-0.022072602
51	0x0c	0.06621781
52	0xe8	-0.13243562
53	0xf7	-0.049663354
54	0xcf	-0.27038938
55	0x07	0.038627055
56	0xf4	-0.06621781
57	0xf5	-0.060699657
58	0xf3	-0.071735956
59	0x03	0.016554452
60	0xdc	-0.19865341
61	0xf7	-0.049663354
62	0xfa	-0.033108905
63	0xf7	-0.049663354
64	0xf0	-0.08829041
65	0xfd	-0.016554452
66	0xf8	-0.044145204
67	0x04	0.022072602
68	0xf6	-0.055181503
69	0xfe	-0.011036301
70	0x01	0.0055181505
71	0xf5	-0.060699657
72	0xe8	-0.13243562
73	0xfc	-0.022072602
74	0xf5	-0.060699657
75	0xfd	-0.016554452
76	0xf8	-0.044145204
77	0xfa	-0.033108905
78	0x02	0.011036301
79	0x0c	0.06621781
80	0xfc	-0.022072602
81	0x0c	0.06621781
82	0xf3	-0.071735956
83	0xdb	-0.20417157
84	0xeb	-0.11588116
85	0xf9	-0.038627055
86	0x02	0.011036301
87	0xfa	-0.033108905
88	0xed	-0.10484486
89	0xfb	-0.027590752
90	0x03	0.016554452
91	0xf9	-0.038627055
92	0xfc	-0.022072602
93	0xf0	-0.08829041
94	0xf9	-0.038627055
95	0xf6	-0.055181503
96	0xfe	-0.011036301
97	0xf6	-0.055181503
98	0x04	0.022072602
99	0xe7	-0.13795376
100	0xd8	-0.22072601
101	0xff	-0.0055181505
102	0xf4	-0.06621781
103	0xfd	-0.016554452
104	0xf1	-0.082772255
105	0xe9	-0.12691747
106	0x11	0.09380856
107	0x0a	0.055181503
108	0x09	0.049663354
109	0xff	-0.0055181505
110	0xfa	-0.033108905
111	0xed	-0.10484486
112	0xda	-0.20968972
113	0xf9	-0.038627055
114	0xef	-0.09380856
115	0x0c	0.06621781
116	0xe7	-0.13795376
117	0xf5	-0.060699657
118	0xe1	-0.17106266
119	0x05	0.027590752
120	0x0e	0.07725411
121	0xfc	-0.022072602
122	0xe4	-0.15450822
123	0x02	0.011036301
124	0xf5	-0.060699657
125	0x0b	0.060699657
126	0xff	-0.0055181505
127	0xfe	-0.011036301
128	0xe9	-0.12691747
129	0xf8	-0.044145204
130	0x0d	0.071735956
131	0x00	0.0
132	0xfa	-0.033108905
133	0x04	0.022072602
134	0x00	0.0
135	0xef	-0.09380856
136	0xee	-0.09932671
137	0xf5	-0.060699657
138	0x0e	0.07725411
139	0xf7	-0.049663354
140	0xf8	-0.044145204
141	0x00	0.0
142	0x09	0.049663354
143	0x0c	0.06621781
144	0x07	0.038627055
145	0x0a	0.055181503
146	0xf8	-0.044145204
147	0xeb	-0.11588116
148	0xfe	-0.011036301
149	0x0b	0.060699657
150	0xf9	-0.038627055
151	0x09	0.049663354
152	0xe2	-0.16554451
153	0xf3	-0.071735956
154	0xfd	-0.016554452
155	0xed	-0.10484486
156	0xf0	-0.08829041
157	0xf0	-0.08829041
158	0x09	0.049663354
159	0xef	-0.09380856
160	0x09	0.049663354
161	0xfc	-0.022072602
162	0x1d	0.16002637
163	0xef	-0.09380856
164	0xfb	-0.027590752
165	0x09	0.049663354
166	0xfb	-0.027590752
167	0x02	0.011036301
168	0xf5	-0.060699657
169	0xd5	-0.23728047
170	0xf3	-0.071735956
171	0xfb	-0.027590752
172	0x03	0.016554452
173	0xeb	-0.11588116
174	0xf2	-0.07725411
175	0xfb	-0.027590752
176	0xdf	-0.18209897
177	0xf2	-0.07725411
178	0xf9	-0.038627055
179	0x0f	0.082772255
180	0xef	-0.09380856
181	0xef	-0.09380856
182	0xe4	-0.15450822
183	0x15	0.11588116
184	0x09	0.049663354
185	0xf0	-0.08829041
186	0x09	0.049663354
187	0x02	0.011036301
188	0xfd	-0.016554452
189	0x0a	0.055181503
190	0xff	-0.0055181505
191	0xe8	-0.13243562
192	0x02	0.011036301
193	0x05	0.027590752
194	0x09	0.049663354
195	0x04	0.022072602
196	0xf2	-0.07725411
197	0x05	0.027590752
198	0x15	0.11588116
199	0x0d	0.071735956
200	0xec	-0.11036301
201	0xfb	-0.027590752
202	0x13	0.10484486
203	0x0b	0.060699657
204	0xf5	-0.060699657
205	0x03	0.016554452
206	0x0c	0.06621781
207	0x01	0.0055181505
208	0x00	0.0
209	0x16	0.12139931
210	0xea	-0.12139931
211	0xf2	-0.07725411
212	0xf2	-0.07725411
213	0x03	0.016554452
214	0xfe	-0.011036301
215	0x1b	0.14899006
216	0xee	-0.09932671
217	0xe6	-0.14347191
218	0xfa	-0.033108905
219	0xe0	-0.17658082
220	0x0b	0.060699657
221	0xed	-0.10484486
222	0x07	0.038627055
223	0xf8	-0.044145204
224	0x1f	0.17106266
225	0xf2	-0.07725411
226	0x10	0.08829041
227	0xf7	-0.049663354
228	0xe9	-0.12691747
229	0x1f	0.17106266
230	0xf5	-0.060699657
231	0x01	0.0055181505
232	0xf1	-0.082772255
233	0xdd	-0.19313526
234	0x06	0.033108905
235	0x17	0.12691747
236	0x11	0.09380856
237	0xf4	-0.06621781
238	0xfd	-0.016554452
239	0xf0	-0.08829041
240	0xed	-0.10484486
241	0xf6	-0.055181503
242	0xee	-0.09932671
243	0x08	0.044145204
244	0xee	-0.09932671
245	0xfc	-0.022072602
246	0xe1	-0.17106266
247	0x10	0.08829041
248	0x11	0.09380856
249	0xe8	-0.13243562
250	0xfd	-0.016554452
251	0x0c	0.06621781
252	0xfd	-0.016554452
253	0xf1	-0.082772255
254	0xf4	-0.06621781
255	0xeb	-0.11588116

sequential_3/conv2d_6/Conv2D f4 [32, 3, 3, 1]
0	0xbede0435	-0.43362585
1	0xbe8a9e8d	-0.2707409
2	0xbe1fd4fd	-0.15608592
3	0xbe46da02	-0.19419101
4	0x3c4fde8c	0.012687337
5	0x3db58112	0.08862509
6	0xbdf8c67a	-0.121472314
7	0x3d453e77	0.048155274
8	0x3e865169	0.26233986
9	0xbeb31787	-0.34978887
10	0xbe5f1df3	-0.21788768
11	0xbe09f46e	-0.13472149
12	0xbd298e92	-0.04139573
13	0x3d061955	0.032739002
14	0xbd43988c	-0.047752902
15	0x3e0c60e1	0.13708831
16	0x3e6f1976	0.23349556
17	0x3e60a092	0.21936253
18	0xbe9f8f21	-0.31163886
19	0xbe04c840	-0.12967014
20	0x3e8914e4	0.2677375
21	0xbde07e3e	-0.10961579
22	0x3d38fac9	0.045161042
23	0x3e25d58f	0.16194747
24	0xbc0d790c	-0.008634817
25	0x3e1d5058	0.1536268
26	0x3c42b30b	0.0118835075
27	0x3d87031f	0.06592392
28	0x3d885d8e	0.06658469
29	0x3e31196e	0.17294857
30	0x3d372192	0.04470975
31	0x3da3eaad	0.08003745
32	0xbe341f1b	-0.17589991
33	0x3db38bfd	0.08766935
34	0xbdfaf721	-0.12254167
35	0xbe4772e4	-0.19477421
36	0x3e773793	0.24142294
37	0xbd0582f3	-0.032595586
38	0xbe54d05d	-0.2078261
39	0x3e266d1f	0.16252564
40	0x3dfd25c1	0.123607166
41	0xbea1440b	-0.31497225
42	0x3dd6fa88	0.10497004
43	0x3d03b3c4	0.03215386
44	0xbe05ab20	-0.1305356
45	0x3dc9e48b	0.09858044
46	0xbd0902de	-0.03345
47	0x3e348cc4	0.17631823
48	0x3df9291b	0.12166043
49	0x3cc545f3	0.024081206
50	0x3e338805	0.17532356
51	0xbe823439	-0.25430468
52	0xbe58d4e7	-0.21174966
53	0xbdb5310c	-0.088472456
54	0xbb11cb73	-0.002224651
55	0x3e7f7038	0.24945152
56	0x3e4846c9	0.19558252
57	0xbe7e18f2	-0.24814203
58	0xbd820a6b	-0.06349643
59	0xbc8b0686	-0.016970884
60	0xbe870a57	-0.26375076
61	0xbe49a4ca	-0.19691768
62	0xbe9ec3d2	-0.31008774
63	0x3e2b21d0	0.16712117
64	0x3de41a40	0.11137819
65	0xbd0d84f9	-0.03455064
66	0x3def80c9	0.11694486
67	0xbe47aec3	-0.1950026
68	0xbd198797	-0.037482824
69	0x3de901f6	0.11377327
70	0xbcc2eefd	-0.0237956
71	0xbde972f0	-0.11398876
72	0x3c5c9ca9	0.013465085
73	0xbe2171bc	-0.15766042
74	0xbe0fabd3	-0.1403039
75	0xbd82f7f5	-0.0639495
76	0xbd48613b	-0.04892085
77	0xbdb27e5b	-0.08715507
78	0xbd277e4b	-0.040891927
79	0xbdb1e4dc	-0.086862296
80	0x3bcc0776	0.0062264754
81	0xbc81481b	-0.015781453
82	0x3e641df7	0.22277056
83	0x3e44657e	0.19179341
84	0xbdbf5c93	-0.09343829
85	0xbd8a24b0	-0.06745279
86	0x3e059511	0.13045146
87	0xbec03f3e	-0.3754825
88	0xbddac24f	-0.10681593
89	0xbe294ce1	-0.16533233
90	0xbef4f931	-0.47846368
91	0xbe7eb86a	-0.24875036
92	0x3df45da3	0.11931922
93	0x3be1514c	0.0068761464
94	0xbe3963f1	-0.18104531
95	0x3e3b456f	0.18288206
96	0x3e286c26	0.16447505
97	0xbed93442	-0.42422682
98	0xbdb4f4b8	-0.08835739
99	0x3d9d4b27	0.0768035
100	0x3da44fc8	0.080230296
101	0x3d4831c1	0.048875574
102	0x3bdf5aec	0.0068162587
103	0x3cd67ee4	0.026183553
104	0x3e355a6a	0.17710271
105	0xbe9d23b3	-0.306913
106	0xbe16a782	-0.14712337
107	0x3d17501f	0.036941644
108	0xbe3f9c76	-0.18712029
109	0x3dab4590	0.08362877
110	0x3e1b1aa5	0.15146883
111	0xbe41672b	-0.18887012
112	0x3dcaf915	0.0991079
113	0x3d8d6950	0.069048524
114	0xbea21051	-0.31653073
115	0xbe05f928	-0.13083327
116	0x3e611e44	0.21984202
117	0xbe895c64	-0.268283
118	0xbd30aa89	-0.043131385
119	0x3d7783b9	0.060428355
120	0xbd89d0c5	-0.06729273
121	0x3def4a0e	0.11684047
122	0x3e19a7af	0.15005372
123	0xbd5e1486	-0.05421879
124	0x3deb42f6	0.11487381
125	0xbcab645f	-0.020921884
126	0x3eb382ff	0.3506088
127	0x3de39c6c	0.111138195
128	0xbd8f5e4f	-0.0700041
129	0x3defca82	0.11708547
130	0x3cb53b66	0.02212305
131	0xbde4618d	-0.11151419
132	0xbd3af35f	-0.045642253
133	0xbe133812	-0.14376858
134	0xbf0ec3a0	-0.5576725
135	0x3e1e5925	0.15463693
136	0x3e5d168b	0.2159063
137	0xbc77770c	-0.015104067
138	0x3dc953b6	0.0983042
139	0x3d9acefa	0.07559009
140	0xbdaa0ae7	-0.08302861
141	0xbd9c00a8	-0.07617313
142	0xbd95051e	-0.07276367
143	0xbe50e451	-0.20399596
144	0x3e04393c	0.12912458
145	0xbe45a6e1	-0.1930194
146	0xbe582b57	-0.21110283
147	0x3df624a7	0.1201871
148	0x3d9238e4	0.07139757
149	0xbe1614ba	-0.14656344
150	0x3de53349	0.111914225
151	0xbd6c1682	-0.057638653
152	0x3e642634	0.22280198
153	0x3e27faf6	0.16404328
154	0x3dd220eb	0.10260185
155	0x3e44814f	0.19189952
156	0x3daef1f5	0.085422434
157	0x3d7835a3	0.060598027
158	0xbde4e242	-0.11175968
159	0xbe8a0e52	-0.2696405
160	0xbdf18f7a	-0.11794944
161	0xbea86fd4	-0.32897818
162	0x3d9eccc7	0.07753902
163	0xbe3ed92e	-0.18637535
164	0xbe5cad96	-0.21550593
165	0x3e0c2798	0.13686979
166	0x3d0a89e9	0.033822928
167	0x3de68134	0.11255112
168	0x3cd67e4f	0.026183276
169	0x3c9ab100	0.018883228
170	0x3d4ab406	0.04948809
171	0x3b99f382	0.004698218
172	0xbe3a7e68	-0.18212283
173	0xbd059d80	-0.032620907
174	0x3dad8221	0.08472086
175	0xbdb4395d	-0.08800004
176	0xbd375403	-0.044757854
177	0x3de2e995	0.110797085
178	0x3e30a920	0.17252016
179	0xbd693a6e	-0.05694049
180	0xbd638892	-0.055550165
181	0xbe409f1b	-0.18810694
182	0xbec70d13	-0.38877162
183	0x3d9c5a75	0.07634441
184	0x3d50ce62	0.050978072
185	0xbe3c7916	-0.18405566
186	0x3eb64304	0.35598004
187	0x3e8c477b	0.27398285
188	0xbd0022f2	-0.031283326
189	0x3e846f8f	0.25866362
190	0xbcbee491	-0.023302348
191	0xbdf15c24	-0.117851526
192	0x3d1cbeb9	0.038267825
193	0x3d1e2526	0.038609646
194	0xbe15e8a4	-0.14639527
195	0x3e703065	0.23455961
196	0xbd19646c	-0.037449285
197	0xbe715733	-0.2356842
198	0xbbbc0d45	-0.0057388865
199	0xbdbf3c9d	-0.09337733
200	0xbea0dcfb	-0.31418595
201	0x3e76c463	0.24098353
202	0xbd2140db	-0.03936849
203	0xbe99e5e6	-0.3005821
204	0x3e6ceb7a	0.23136702
205	0x3d57a96f	0.05265182
206	0xbe32df18	-0.17467916
207	0x3afb292f	0.0019162054
208	0xbdebd7f8	-0.11515802
209	0x3c23a90e	0.009989036
210	0x3d39c8bd	0.045357455
211	0x3abc1fec	0.0014352775
212	0xbe4a5417	-0.1975864
213	0x3e91b02e	0.28454727
214	0x3e0b8ff9	0.1362914
215	0xbdee6c7a	-0.11641784
216	0x3e3ff5b4	0.18746072
217	0x3e2f9467	0.17146455
218	0x3e3f860c	0.18703479
219	0xbc09caaf	-0.00841014
220	0xbd08f03e	-0.033432238
221	0xbd708b18	-0.0587264
222	0xbe230499	-0.15919723
223	0xbe0a2324	-0.13489968
224	0xbe560c4b	-0.20903127
225	0x3cc063d8	0.02348511
226	0xbdcad28b	-0.09903439
227	0xbe76bf1b	-0.24096338
228	0xbc8e36ff	-0.017360209
229	0xbd4a283f	-0.049354788
230	0x3b8df5cb	0.0043322793
231	0x3ba26750	0.0049561635
232	0x3d78912c	0.06068532
233	0x3e8cafa7	0.27477762
234	0x3dc86efe	0.09786795
235	0xbdbc2f1d	-0.09188674
236	0x3e62001c	0.22070354
237	0xbe7a462b	-0.2444083
238	0xbe24f02e	-0.16107246
239	0x3e3e981f	0.18612717
240	0xbddc978e	-0.10771094
241	0xbdf7a5bf	-0.120921604
242	0x3e3b085f	0.18264912
243	0x3dc2c7f7	0.095107965
244	0xbd376f46	-0.044783853
245	0x3e0a409b	0.13501208
246	0xbdb88fc5	-0.09011797
247	0xbd3e3d2b	-0.046445053
248	0x3bf6ded8	0.0075338893
249	0xbdd4a879	-0.10383696
250	0xbdb3dc66	-0.08782272
251	0xbd97ff16	-0.07421701
252	0x3e0d7eb3	0.13817863
253	0x3e06fcd0	0.13182378
254	0xbd4da5a8	-0.05020681
255	0xbe561a17	-0.2090839

sequential_3/conv2d_7/Conv2D i1 [64, 3, 3, 32]
0	0xe2	-30
1	0xfe	-2
2	0x11	17
3	0xf8	-8
4	0x29	41
5	0x01	1
6	0xde	-34
7	0x0f	15
8	0x0d	13
9	0xd5	-43
10	0xd8	-40
11	0xe1	-31
12	0xff	-1
13	0x0c	12
14	0x20	32
15	0xf1	-15
16	0x06	6
17	0x20	32
18	0x07	7
19	0x0b	11
20	0xd7	-41
21	0x1b	27
22	0x0a	10
23	0xf4	-12
24	0x05	5
25	0xcb	-53
26	0xc5	-59
27	0xf2	-14
28	0xdc	-36
29	0x00	0
30	0xf6	-10
31	0x28	40
32	0xeb	-21
33	0xf7	-9
34	0xee	-18
35	0xfb	-5
36	0x26	38
37	0xfc	-4
38	0x01	1
39	0xec	-20
40	0x0b	11
41	0xd8	-40
42	0xd5	-43
43	0xf1	-15
44	0xc2	-62
45	0xcf	-49
46	0x18	24
47	0x17	23
48	0x1f	31
49	0x11	17
50	0xf7	-9
51	0x02	2
52	0xda	-38
53	0xf6	-10
54	0x13	19
55	0x07	7
56	0xfa	-6
57	0xcf	-49
58	0xce	-50
59	0xec	-20
60	0xe8	-24
61	0x0c	12
62	0xd8	-40
63	0x24	36
64	0x28	40
65	0x1c	28
66	0xfb	-5
67	0xe1	-31
68	0x1e	30
69	0xe3	-29
70	0xee	-18
71	0xf8	-8
72	0xf2	-14
73	0xd7	-41
74	0x06	6
75	0xce	-50
76	0xd6	-42
77	0xf5	-11
78	0x0e	14
79	0xf8	-8
80	0x21	33
81	0xf2	-14
82	0x10	16
83	0xfa	-6
84	0xe1	-31
85	0x1d	29
86	0x29	41
87	0xfa	-6
88	0x0f	15
89	0xdb	-37
90	0x9c	-100
91	0xda	-38
92	0xc1	-63
93	0xfb	-5
94	0xd2	-46
95	0x23	35
96	0xe3	-29
97	0xd0	-48
98	0xe6	-26
99	0xfb	-5
100	0x05	5
101	0xfc	-4
102	0xd8	-40
103	0x03	3
104	0x15	21
105	0xc0	-64
106	0xc0	-64
107	0xfb	-5
108	0xcc	-52
109	0xe3	-29
110	0x19	25
111	0xfa	-6
112	0xfd	-3
113	0x22	34
114	0xe7	-25
115	0xcb	-53
116	0x94	-108
117	0x00	0
118	0xfa	-6
119	0xf5	-11
120	0x1e	30
121	0xcb	-53
122	0xb3	-77
123	0x17	23
124	0xc2	-62
125	0xe7	-25
126	0x03	3
127	0x1a	26
128	0x25	37
129	0xfb	-5
130	0xee	-18
131	0x01	1
132	0x14	20
133	0xe8	-24
134	0xe1	-31
135	0xf4	-12
136	0xfd	-3
137	0xe7	-25
138	0xfa	-6
139	0xe8	-24
140	0xb7	-73
141	0x01	1
142	0x1f	31
143	0xfb	-5
144	0xda	-38
145	0x20	32
146	0xe3	-29
147	0xdd	-35
148	0xc7	-57
149	0xf7	-9
150	0xfe	-2
151	0xd0	-48
152	0x1c	28
153	0xfa	-6
154	0xd0	-48
155	0x05	5
156	0xd5	-43
157	0x0b	11
158	0xf0	-16
159	0x05	5
160	0x33	51
161	0x1d	29
162	0xe7	-25
163	0xd4	-44
164	0x10	16
165	0xcf	-49
166	0xf8	-8
167	0x02	2
168	0x0c	12
169	0xdb	-37
170	0x0b	11
171	0xe2	-30
172	0xc7	-57
173	0xf6	-10
174	0x04	4
175	0x05	5
176	0xeb	-21
177	0xfd	-3
178	0xeb	-21
179	0xdd	-35
180	0xd1	-47
181	0xee	-18
182	0x15	21
183	0xd8	-40
184	0xf7	-9
185	0xba	-70
186	0x91	-111
187	0xd7	-41
188	0xd1	-47
189	0xec	-20
190	0xc6	-58
191	0x15	21
192	0xfb	-5
193	0x02	2
194	0xed	-19
195	0xf8	-8
196	0x08	8
197	0xfc	-4
198	0xea	-22
199	0xf5	-11
200	0x08	8
201	0xe0	-32
202	0xcf	-49
203	0xef	-17
204	0xcc	-52
205	0xd9	-39
206	0x0f	15
207	0x0f	15
208	0xe9	-23
209	0x16	22
210	0xd7	-41
211	0xdd	-35
212	0xa1	-95
213	0xfc	-4
214	0xf6	-10
215	0xcd	-51
216	0x1f	31
217	0xec	-20
218	0xb6	-74
219	0x0f	15
220	0xd3	-45
221	0xe8	-24
222	0xf7	-9
223	0xf4	-12
224	0x24	36
225	0x17	23
226	0xe4	-28
227	0xe9	-23
228	0xe3	-29
229	0xfa	-6
230	0xee	-18
231	0xf6	-10
232	0x07	7
233	0xf9	-7
234	0x0d	13
235	0xe5	-27
236	0xeb	-21
237	0xed	-19
238	0xf3	-13
239	0xe9	-23
240	0xd4	-44
241	0x02	2
242	0xd6	-42
243	0xca	-54
244	0xdd	-35
245	0xef	-17
246	0xdd	-35
247	0xd9	-39
248	0xf3	-13
249	0xe2	-30
250	0xbd	-67
251	0xf2	-14
252	0xd2	-46
253	0xea	-22
254	0xdf	-33
255	0xfe	-2
